Qwen2ForCausalLM(
  (model): Qwen2Model(
    (embed_tokens): Embedding(152064, 3584)
    (layers): ModuleList(
      (0-27): 28 x Qwen2DecoderLayer(
        (self_attn): Qwen2Attention(
          (q_proj): Linear(in_features=3584, out_features=3584, bias=True)
          (k_proj): Linear(in_features=3584, out_features=512, bias=True)
          (v_proj): Linear(in_features=3584, out_features=512, bias=True)
          (o_proj): Linear(in_features=3584, out_features=3584, bias=False)
        )
        (mlp): Qwen2MLP(
          (gate_proj): Linear(in_features=3584, out_features=18944, bias=False)
          (up_proj): Linear(in_features=3584, out_features=18944, bias=False)
          (down_proj): Linear(in_features=18944, out_features=3584, bias=False)
          (act_fn): SiLU()
        )
        (input_layernorm): Qwen2RMSNorm((3584,), eps=1e-06)
        (post_attention_layernorm): Qwen2RMSNorm((3584,), eps=1e-06)
      )
    )
    (norm): Qwen2RMSNorm((3584,), eps=1e-06)
    (rotary_emb): Qwen2RotaryEmbedding()
  )
  (lm_head): Linear(in_features=3584, out_features=152064, bias=False)
)
model: Qwen2Model(
  (embed_tokens): Embedding(152064, 3584)
  (layers): ModuleList(
    (0-27): 28 x Qwen2DecoderLayer(
      (self_attn): Qwen2Attention(
        (q_proj): Linear(in_features=3584, out_features=3584, bias=True)
        (k_proj): Linear(in_features=3584, out_features=512, bias=True)
        (v_proj): Linear(in_features=3584, out_features=512, bias=True)
        (o_proj): Linear(in_features=3584, out_features=3584, bias=False)
      )
      (mlp): Qwen2MLP(
        (gate_proj): Linear(in_features=3584, out_features=18944, bias=False)
        (up_proj): Linear(in_features=3584, out_features=18944, bias=False)
        (down_proj): Linear(in_features=18944, out_features=3584, bias=False)
        (act_fn): SiLU()
      )
      (input_layernorm): Qwen2RMSNorm((3584,), eps=1e-06)
      (post_attention_layernorm): Qwen2RMSNorm((3584,), eps=1e-06)
    )
  )
  (norm): Qwen2RMSNorm((3584,), eps=1e-06)
  (rotary_emb): Qwen2RotaryEmbedding()
)
model.embed_tokens: Embedding(152064, 3584)
model.layers: ModuleList(
  (0-27): 28 x Qwen2DecoderLayer(
    (self_attn): Qwen2Attention(
      (q_proj): Linear(in_features=3584, out_features=3584, bias=True)
      (k_proj): Linear(in_features=3584, out_features=512, bias=True)
      (v_proj): Linear(in_features=3584, out_features=512, bias=True)
      (o_proj): Linear(in_features=3584, out_features=3584, bias=False)
    )
    (mlp): Qwen2MLP(
      (gate_proj): Linear(in_features=3584, out_features=18944, bias=False)
      (up_proj): Linear(in_features=3584, out_features=18944, bias=False)
      (down_proj): Linear(in_features=18944, out_features=3584, bias=False)
      (act_fn): SiLU()
    )
    (input_layernorm): Qwen2RMSNorm((3584,), eps=1e-06)
    (post_attention_layernorm): Qwen2RMSNorm((3584,), eps=1e-06)
  )
)
model.layers.0: Qwen2DecoderLayer(
  (self_attn): Qwen2Attention(
    (q_proj): Linear(in_features=3584, out_features=3584, bias=True)
    (k_proj): Linear(in_features=3584, out_features=512, bias=True)
    (v_proj): Linear(in_features=3584, out_features=512, bias=True)
    (o_proj): Linear(in_features=3584, out_features=3584, bias=False)
  )
  (mlp): Qwen2MLP(
    (gate_proj): Linear(in_features=3584, out_features=18944, bias=False)
    (up_proj): Linear(in_features=3584, out_features=18944, bias=False)
    (down_proj): Linear(in_features=18944, out_features=3584, bias=False)
    (act_fn): SiLU()
  )
  (input_layernorm): Qwen2RMSNorm((3584,), eps=1e-06)
  (post_attention_layernorm): Qwen2RMSNorm((3584,), eps=1e-06)
)
model.layers.0.self_attn: Qwen2Attention(
  (q_proj): Linear(in_features=3584, out_features=3584, bias=True)
  (k_proj): Linear(in_features=3584, out_features=512, bias=True)
  (v_proj): Linear(in_features=3584, out_features=512, bias=True)
  (o_proj): Linear(in_features=3584, out_features=3584, bias=False)
)
model.layers.0.self_attn.q_proj: Linear(in_features=3584, out_features=3584, bias=True)
model.layers.0.self_attn.k_proj: Linear(in_features=3584, out_features=512, bias=True)
model.layers.0.self_attn.v_proj: Linear(in_features=3584, out_features=512, bias=True)
model.layers.0.self_attn.o_proj: Linear(in_features=3584, out_features=3584, bias=False)
model.layers.0.mlp: Qwen2MLP(
  (gate_proj): Linear(in_features=3584, out_features=18944, bias=False)
  (up_proj): Linear(in_features=3584, out_features=18944, bias=False)
  (down_proj): Linear(in_features=18944, out_features=3584, bias=False)
  (act_fn): SiLU()
)
model.layers.0.mlp.gate_proj: Linear(in_features=3584, out_features=18944, bias=False)
model.layers.0.mlp.up_proj: Linear(in_features=3584, out_features=18944, bias=False)
model.layers.0.mlp.down_proj: Linear(in_features=18944, out_features=3584, bias=False)
model.layers.0.mlp.act_fn: SiLU()
model.layers.0.input_layernorm: Qwen2RMSNorm((3584,), eps=1e-06)
model.layers.0.post_attention_layernorm: Qwen2RMSNorm((3584,), eps=1e-06)
model.layers.1: Qwen2DecoderLayer(
  (self_attn): Qwen2Attention(
    (q_proj): Linear(in_features=3584, out_features=3584, bias=True)
    (k_proj): Linear(in_features=3584, out_features=512, bias=True)
    (v_proj): Linear(in_features=3584, out_features=512, bias=True)
    (o_proj): Linear(in_features=3584, out_features=3584, bias=False)
  )
  (mlp): Qwen2MLP(
    (gate_proj): Linear(in_features=3584, out_features=18944, bias=False)
    (up_proj): Linear(in_features=3584, out_features=18944, bias=False)
    (down_proj): Linear(in_features=18944, out_features=3584, bias=False)
    (act_fn): SiLU()
  )
  (input_layernorm): Qwen2RMSNorm((3584,), eps=1e-06)
  (post_attention_layernorm): Qwen2RMSNorm((3584,), eps=1e-06)
)
model.layers.1.self_attn: Qwen2Attention(
  (q_proj): Linear(in_features=3584, out_features=3584, bias=True)
  (k_proj): Linear(in_features=3584, out_features=512, bias=True)
  (v_proj): Linear(in_features=3584, out_features=512, bias=True)
  (o_proj): Linear(in_features=3584, out_features=3584, bias=False)
)
model.layers.1.self_attn.q_proj: Linear(in_features=3584, out_features=3584, bias=True)
model.layers.1.self_attn.k_proj: Linear(in_features=3584, out_features=512, bias=True)
model.layers.1.self_attn.v_proj: Linear(in_features=3584, out_features=512, bias=True)
model.layers.1.self_attn.o_proj: Linear(in_features=3584, out_features=3584, bias=False)
model.layers.1.mlp: Qwen2MLP(
  (gate_proj): Linear(in_features=3584, out_features=18944, bias=False)
  (up_proj): Linear(in_features=3584, out_features=18944, bias=False)
  (down_proj): Linear(in_features=18944, out_features=3584, bias=False)
  (act_fn): SiLU()
)
model.layers.1.mlp.gate_proj: Linear(in_features=3584, out_features=18944, bias=False)
model.layers.1.mlp.up_proj: Linear(in_features=3584, out_features=18944, bias=False)
model.layers.1.mlp.down_proj: Linear(in_features=18944, out_features=3584, bias=False)
model.layers.1.mlp.act_fn: SiLU()
model.layers.1.input_layernorm: Qwen2RMSNorm((3584,), eps=1e-06)
model.layers.1.post_attention_layernorm: Qwen2RMSNorm((3584,), eps=1e-06)
model.layers.2: Qwen2DecoderLayer(
  (self_attn): Qwen2Attention(
    (q_proj): Linear(in_features=3584, out_features=3584, bias=True)
    (k_proj): Linear(in_features=3584, out_features=512, bias=True)
    (v_proj): Linear(in_features=3584, out_features=512, bias=True)
    (o_proj): Linear(in_features=3584, out_features=3584, bias=False)
  )
  (mlp): Qwen2MLP(
    (gate_proj): Linear(in_features=3584, out_features=18944, bias=False)
    (up_proj): Linear(in_features=3584, out_features=18944, bias=False)
    (down_proj): Linear(in_features=18944, out_features=3584, bias=False)
    (act_fn): SiLU()
  )
  (input_layernorm): Qwen2RMSNorm((3584,), eps=1e-06)
  (post_attention_layernorm): Qwen2RMSNorm((3584,), eps=1e-06)
)
model.layers.2.self_attn: Qwen2Attention(
  (q_proj): Linear(in_features=3584, out_features=3584, bias=True)
  (k_proj): Linear(in_features=3584, out_features=512, bias=True)
  (v_proj): Linear(in_features=3584, out_features=512, bias=True)
  (o_proj): Linear(in_features=3584, out_features=3584, bias=False)
)
model.layers.2.self_attn.q_proj: Linear(in_features=3584, out_features=3584, bias=True)
model.layers.2.self_attn.k_proj: Linear(in_features=3584, out_features=512, bias=True)
model.layers.2.self_attn.v_proj: Linear(in_features=3584, out_features=512, bias=True)
model.layers.2.self_attn.o_proj: Linear(in_features=3584, out_features=3584, bias=False)
model.layers.2.mlp: Qwen2MLP(
  (gate_proj): Linear(in_features=3584, out_features=18944, bias=False)
  (up_proj): Linear(in_features=3584, out_features=18944, bias=False)
  (down_proj): Linear(in_features=18944, out_features=3584, bias=False)
  (act_fn): SiLU()
)
model.layers.2.mlp.gate_proj: Linear(in_features=3584, out_features=18944, bias=False)
model.layers.2.mlp.up_proj: Linear(in_features=3584, out_features=18944, bias=False)
model.layers.2.mlp.down_proj: Linear(in_features=18944, out_features=3584, bias=False)
model.layers.2.mlp.act_fn: SiLU()
model.layers.2.input_layernorm: Qwen2RMSNorm((3584,), eps=1e-06)
model.layers.2.post_attention_layernorm: Qwen2RMSNorm((3584,), eps=1e-06)
model.layers.3: Qwen2DecoderLayer(
  (self_attn): Qwen2Attention(
    (q_proj): Linear(in_features=3584, out_features=3584, bias=True)
    (k_proj): Linear(in_features=3584, out_features=512, bias=True)
    (v_proj): Linear(in_features=3584, out_features=512, bias=True)
    (o_proj): Linear(in_features=3584, out_features=3584, bias=False)
  )
  (mlp): Qwen2MLP(
    (gate_proj): Linear(in_features=3584, out_features=18944, bias=False)
    (up_proj): Linear(in_features=3584, out_features=18944, bias=False)
    (down_proj): Linear(in_features=18944, out_features=3584, bias=False)
    (act_fn): SiLU()
  )
  (input_layernorm): Qwen2RMSNorm((3584,), eps=1e-06)
  (post_attention_layernorm): Qwen2RMSNorm((3584,), eps=1e-06)
)
model.layers.3.self_attn: Qwen2Attention(
  (q_proj): Linear(in_features=3584, out_features=3584, bias=True)
  (k_proj): Linear(in_features=3584, out_features=512, bias=True)
  (v_proj): Linear(in_features=3584, out_features=512, bias=True)
  (o_proj): Linear(in_features=3584, out_features=3584, bias=False)
)
model.layers.3.self_attn.q_proj: Linear(in_features=3584, out_features=3584, bias=True)
model.layers.3.self_attn.k_proj: Linear(in_features=3584, out_features=512, bias=True)
model.layers.3.self_attn.v_proj: Linear(in_features=3584, out_features=512, bias=True)
model.layers.3.self_attn.o_proj: Linear(in_features=3584, out_features=3584, bias=False)
model.layers.3.mlp: Qwen2MLP(
  (gate_proj): Linear(in_features=3584, out_features=18944, bias=False)
  (up_proj): Linear(in_features=3584, out_features=18944, bias=False)
  (down_proj): Linear(in_features=18944, out_features=3584, bias=False)
  (act_fn): SiLU()
)
model.layers.3.mlp.gate_proj: Linear(in_features=3584, out_features=18944, bias=False)
model.layers.3.mlp.up_proj: Linear(in_features=3584, out_features=18944, bias=False)
model.layers.3.mlp.down_proj: Linear(in_features=18944, out_features=3584, bias=False)
model.layers.3.mlp.act_fn: SiLU()
model.layers.3.input_layernorm: Qwen2RMSNorm((3584,), eps=1e-06)
model.layers.3.post_attention_layernorm: Qwen2RMSNorm((3584,), eps=1e-06)
model.layers.4: Qwen2DecoderLayer(
  (self_attn): Qwen2Attention(
    (q_proj): Linear(in_features=3584, out_features=3584, bias=True)
    (k_proj): Linear(in_features=3584, out_features=512, bias=True)
    (v_proj): Linear(in_features=3584, out_features=512, bias=True)
    (o_proj): Linear(in_features=3584, out_features=3584, bias=False)
  )
  (mlp): Qwen2MLP(
    (gate_proj): Linear(in_features=3584, out_features=18944, bias=False)
    (up_proj): Linear(in_features=3584, out_features=18944, bias=False)
    (down_proj): Linear(in_features=18944, out_features=3584, bias=False)
    (act_fn): SiLU()
  )
  (input_layernorm): Qwen2RMSNorm((3584,), eps=1e-06)
  (post_attention_layernorm): Qwen2RMSNorm((3584,), eps=1e-06)
)
model.layers.4.self_attn: Qwen2Attention(
  (q_proj): Linear(in_features=3584, out_features=3584, bias=True)
  (k_proj): Linear(in_features=3584, out_features=512, bias=True)
  (v_proj): Linear(in_features=3584, out_features=512, bias=True)
  (o_proj): Linear(in_features=3584, out_features=3584, bias=False)
)
model.layers.4.self_attn.q_proj: Linear(in_features=3584, out_features=3584, bias=True)
model.layers.4.self_attn.k_proj: Linear(in_features=3584, out_features=512, bias=True)
model.layers.4.self_attn.v_proj: Linear(in_features=3584, out_features=512, bias=True)
model.layers.4.self_attn.o_proj: Linear(in_features=3584, out_features=3584, bias=False)
model.layers.4.mlp: Qwen2MLP(
  (gate_proj): Linear(in_features=3584, out_features=18944, bias=False)
  (up_proj): Linear(in_features=3584, out_features=18944, bias=False)
  (down_proj): Linear(in_features=18944, out_features=3584, bias=False)
  (act_fn): SiLU()
)
model.layers.4.mlp.gate_proj: Linear(in_features=3584, out_features=18944, bias=False)
model.layers.4.mlp.up_proj: Linear(in_features=3584, out_features=18944, bias=False)
model.layers.4.mlp.down_proj: Linear(in_features=18944, out_features=3584, bias=False)
model.layers.4.mlp.act_fn: SiLU()
model.layers.4.input_layernorm: Qwen2RMSNorm((3584,), eps=1e-06)
model.layers.4.post_attention_layernorm: Qwen2RMSNorm((3584,), eps=1e-06)
model.layers.5: Qwen2DecoderLayer(
  (self_attn): Qwen2Attention(
    (q_proj): Linear(in_features=3584, out_features=3584, bias=True)
    (k_proj): Linear(in_features=3584, out_features=512, bias=True)
    (v_proj): Linear(in_features=3584, out_features=512, bias=True)
    (o_proj): Linear(in_features=3584, out_features=3584, bias=False)
  )
  (mlp): Qwen2MLP(
    (gate_proj): Linear(in_features=3584, out_features=18944, bias=False)
    (up_proj): Linear(in_features=3584, out_features=18944, bias=False)
    (down_proj): Linear(in_features=18944, out_features=3584, bias=False)
    (act_fn): SiLU()
  )
  (input_layernorm): Qwen2RMSNorm((3584,), eps=1e-06)
  (post_attention_layernorm): Qwen2RMSNorm((3584,), eps=1e-06)
)
model.layers.5.self_attn: Qwen2Attention(
  (q_proj): Linear(in_features=3584, out_features=3584, bias=True)
  (k_proj): Linear(in_features=3584, out_features=512, bias=True)
  (v_proj): Linear(in_features=3584, out_features=512, bias=True)
  (o_proj): Linear(in_features=3584, out_features=3584, bias=False)
)
model.layers.5.self_attn.q_proj: Linear(in_features=3584, out_features=3584, bias=True)
model.layers.5.self_attn.k_proj: Linear(in_features=3584, out_features=512, bias=True)
model.layers.5.self_attn.v_proj: Linear(in_features=3584, out_features=512, bias=True)
model.layers.5.self_attn.o_proj: Linear(in_features=3584, out_features=3584, bias=False)
model.layers.5.mlp: Qwen2MLP(
  (gate_proj): Linear(in_features=3584, out_features=18944, bias=False)
  (up_proj): Linear(in_features=3584, out_features=18944, bias=False)
  (down_proj): Linear(in_features=18944, out_features=3584, bias=False)
  (act_fn): SiLU()
)
model.layers.5.mlp.gate_proj: Linear(in_features=3584, out_features=18944, bias=False)
model.layers.5.mlp.up_proj: Linear(in_features=3584, out_features=18944, bias=False)
model.layers.5.mlp.down_proj: Linear(in_features=18944, out_features=3584, bias=False)
model.layers.5.mlp.act_fn: SiLU()
model.layers.5.input_layernorm: Qwen2RMSNorm((3584,), eps=1e-06)
model.layers.5.post_attention_layernorm: Qwen2RMSNorm((3584,), eps=1e-06)
model.layers.6: Qwen2DecoderLayer(
  (self_attn): Qwen2Attention(
    (q_proj): Linear(in_features=3584, out_features=3584, bias=True)
    (k_proj): Linear(in_features=3584, out_features=512, bias=True)
    (v_proj): Linear(in_features=3584, out_features=512, bias=True)
    (o_proj): Linear(in_features=3584, out_features=3584, bias=False)
  )
  (mlp): Qwen2MLP(
    (gate_proj): Linear(in_features=3584, out_features=18944, bias=False)
    (up_proj): Linear(in_features=3584, out_features=18944, bias=False)
    (down_proj): Linear(in_features=18944, out_features=3584, bias=False)
    (act_fn): SiLU()
  )
  (input_layernorm): Qwen2RMSNorm((3584,), eps=1e-06)
  (post_attention_layernorm): Qwen2RMSNorm((3584,), eps=1e-06)
)
model.layers.6.self_attn: Qwen2Attention(
  (q_proj): Linear(in_features=3584, out_features=3584, bias=True)
  (k_proj): Linear(in_features=3584, out_features=512, bias=True)
  (v_proj): Linear(in_features=3584, out_features=512, bias=True)
  (o_proj): Linear(in_features=3584, out_features=3584, bias=False)
)
model.layers.6.self_attn.q_proj: Linear(in_features=3584, out_features=3584, bias=True)
model.layers.6.self_attn.k_proj: Linear(in_features=3584, out_features=512, bias=True)
model.layers.6.self_attn.v_proj: Linear(in_features=3584, out_features=512, bias=True)
model.layers.6.self_attn.o_proj: Linear(in_features=3584, out_features=3584, bias=False)
model.layers.6.mlp: Qwen2MLP(
  (gate_proj): Linear(in_features=3584, out_features=18944, bias=False)
  (up_proj): Linear(in_features=3584, out_features=18944, bias=False)
  (down_proj): Linear(in_features=18944, out_features=3584, bias=False)
  (act_fn): SiLU()
)
model.layers.6.mlp.gate_proj: Linear(in_features=3584, out_features=18944, bias=False)
model.layers.6.mlp.up_proj: Linear(in_features=3584, out_features=18944, bias=False)
model.layers.6.mlp.down_proj: Linear(in_features=18944, out_features=3584, bias=False)
model.layers.6.mlp.act_fn: SiLU()
model.layers.6.input_layernorm: Qwen2RMSNorm((3584,), eps=1e-06)
model.layers.6.post_attention_layernorm: Qwen2RMSNorm((3584,), eps=1e-06)
model.layers.7: Qwen2DecoderLayer(
  (self_attn): Qwen2Attention(
    (q_proj): Linear(in_features=3584, out_features=3584, bias=True)
    (k_proj): Linear(in_features=3584, out_features=512, bias=True)
    (v_proj): Linear(in_features=3584, out_features=512, bias=True)
    (o_proj): Linear(in_features=3584, out_features=3584, bias=False)
  )
  (mlp): Qwen2MLP(
    (gate_proj): Linear(in_features=3584, out_features=18944, bias=False)
    (up_proj): Linear(in_features=3584, out_features=18944, bias=False)
    (down_proj): Linear(in_features=18944, out_features=3584, bias=False)
    (act_fn): SiLU()
  )
  (input_layernorm): Qwen2RMSNorm((3584,), eps=1e-06)
  (post_attention_layernorm): Qwen2RMSNorm((3584,), eps=1e-06)
)
model.layers.7.self_attn: Qwen2Attention(
  (q_proj): Linear(in_features=3584, out_features=3584, bias=True)
  (k_proj): Linear(in_features=3584, out_features=512, bias=True)
  (v_proj): Linear(in_features=3584, out_features=512, bias=True)
  (o_proj): Linear(in_features=3584, out_features=3584, bias=False)
)
model.layers.7.self_attn.q_proj: Linear(in_features=3584, out_features=3584, bias=True)
model.layers.7.self_attn.k_proj: Linear(in_features=3584, out_features=512, bias=True)
model.layers.7.self_attn.v_proj: Linear(in_features=3584, out_features=512, bias=True)
model.layers.7.self_attn.o_proj: Linear(in_features=3584, out_features=3584, bias=False)
model.layers.7.mlp: Qwen2MLP(
  (gate_proj): Linear(in_features=3584, out_features=18944, bias=False)
  (up_proj): Linear(in_features=3584, out_features=18944, bias=False)
  (down_proj): Linear(in_features=18944, out_features=3584, bias=False)
  (act_fn): SiLU()
)
model.layers.7.mlp.gate_proj: Linear(in_features=3584, out_features=18944, bias=False)
model.layers.7.mlp.up_proj: Linear(in_features=3584, out_features=18944, bias=False)
model.layers.7.mlp.down_proj: Linear(in_features=18944, out_features=3584, bias=False)
model.layers.7.mlp.act_fn: SiLU()
model.layers.7.input_layernorm: Qwen2RMSNorm((3584,), eps=1e-06)
model.layers.7.post_attention_layernorm: Qwen2RMSNorm((3584,), eps=1e-06)
model.layers.8: Qwen2DecoderLayer(
  (self_attn): Qwen2Attention(
    (q_proj): Linear(in_features=3584, out_features=3584, bias=True)
    (k_proj): Linear(in_features=3584, out_features=512, bias=True)
    (v_proj): Linear(in_features=3584, out_features=512, bias=True)
    (o_proj): Linear(in_features=3584, out_features=3584, bias=False)
  )
  (mlp): Qwen2MLP(
    (gate_proj): Linear(in_features=3584, out_features=18944, bias=False)
    (up_proj): Linear(in_features=3584, out_features=18944, bias=False)
    (down_proj): Linear(in_features=18944, out_features=3584, bias=False)
    (act_fn): SiLU()
  )
  (input_layernorm): Qwen2RMSNorm((3584,), eps=1e-06)
  (post_attention_layernorm): Qwen2RMSNorm((3584,), eps=1e-06)
)
model.layers.8.self_attn: Qwen2Attention(
  (q_proj): Linear(in_features=3584, out_features=3584, bias=True)
  (k_proj): Linear(in_features=3584, out_features=512, bias=True)
  (v_proj): Linear(in_features=3584, out_features=512, bias=True)
  (o_proj): Linear(in_features=3584, out_features=3584, bias=False)
)
model.layers.8.self_attn.q_proj: Linear(in_features=3584, out_features=3584, bias=True)
model.layers.8.self_attn.k_proj: Linear(in_features=3584, out_features=512, bias=True)
model.layers.8.self_attn.v_proj: Linear(in_features=3584, out_features=512, bias=True)
model.layers.8.self_attn.o_proj: Linear(in_features=3584, out_features=3584, bias=False)
model.layers.8.mlp: Qwen2MLP(
  (gate_proj): Linear(in_features=3584, out_features=18944, bias=False)
  (up_proj): Linear(in_features=3584, out_features=18944, bias=False)
  (down_proj): Linear(in_features=18944, out_features=3584, bias=False)
  (act_fn): SiLU()
)
model.layers.8.mlp.gate_proj: Linear(in_features=3584, out_features=18944, bias=False)
model.layers.8.mlp.up_proj: Linear(in_features=3584, out_features=18944, bias=False)
model.layers.8.mlp.down_proj: Linear(in_features=18944, out_features=3584, bias=False)
model.layers.8.mlp.act_fn: SiLU()
model.layers.8.input_layernorm: Qwen2RMSNorm((3584,), eps=1e-06)
model.layers.8.post_attention_layernorm: Qwen2RMSNorm((3584,), eps=1e-06)
model.layers.9: Qwen2DecoderLayer(
  (self_attn): Qwen2Attention(
    (q_proj): Linear(in_features=3584, out_features=3584, bias=True)
    (k_proj): Linear(in_features=3584, out_features=512, bias=True)
    (v_proj): Linear(in_features=3584, out_features=512, bias=True)
    (o_proj): Linear(in_features=3584, out_features=3584, bias=False)
  )
  (mlp): Qwen2MLP(
    (gate_proj): Linear(in_features=3584, out_features=18944, bias=False)
    (up_proj): Linear(in_features=3584, out_features=18944, bias=False)
    (down_proj): Linear(in_features=18944, out_features=3584, bias=False)
    (act_fn): SiLU()
  )
  (input_layernorm): Qwen2RMSNorm((3584,), eps=1e-06)
  (post_attention_layernorm): Qwen2RMSNorm((3584,), eps=1e-06)
)
model.layers.9.self_attn: Qwen2Attention(
  (q_proj): Linear(in_features=3584, out_features=3584, bias=True)
  (k_proj): Linear(in_features=3584, out_features=512, bias=True)
  (v_proj): Linear(in_features=3584, out_features=512, bias=True)
  (o_proj): Linear(in_features=3584, out_features=3584, bias=False)
)
model.layers.9.self_attn.q_proj: Linear(in_features=3584, out_features=3584, bias=True)
model.layers.9.self_attn.k_proj: Linear(in_features=3584, out_features=512, bias=True)
model.layers.9.self_attn.v_proj: Linear(in_features=3584, out_features=512, bias=True)
model.layers.9.self_attn.o_proj: Linear(in_features=3584, out_features=3584, bias=False)
model.layers.9.mlp: Qwen2MLP(
  (gate_proj): Linear(in_features=3584, out_features=18944, bias=False)
  (up_proj): Linear(in_features=3584, out_features=18944, bias=False)
  (down_proj): Linear(in_features=18944, out_features=3584, bias=False)
  (act_fn): SiLU()
)
model.layers.9.mlp.gate_proj: Linear(in_features=3584, out_features=18944, bias=False)
model.layers.9.mlp.up_proj: Linear(in_features=3584, out_features=18944, bias=False)
model.layers.9.mlp.down_proj: Linear(in_features=18944, out_features=3584, bias=False)
model.layers.9.mlp.act_fn: SiLU()
model.layers.9.input_layernorm: Qwen2RMSNorm((3584,), eps=1e-06)
model.layers.9.post_attention_layernorm: Qwen2RMSNorm((3584,), eps=1e-06)
model.layers.10: Qwen2DecoderLayer(
  (self_attn): Qwen2Attention(
    (q_proj): Linear(in_features=3584, out_features=3584, bias=True)
    (k_proj): Linear(in_features=3584, out_features=512, bias=True)
    (v_proj): Linear(in_features=3584, out_features=512, bias=True)
    (o_proj): Linear(in_features=3584, out_features=3584, bias=False)
  )
  (mlp): Qwen2MLP(
    (gate_proj): Linear(in_features=3584, out_features=18944, bias=False)
    (up_proj): Linear(in_features=3584, out_features=18944, bias=False)
    (down_proj): Linear(in_features=18944, out_features=3584, bias=False)
    (act_fn): SiLU()
  )
  (input_layernorm): Qwen2RMSNorm((3584,), eps=1e-06)
  (post_attention_layernorm): Qwen2RMSNorm((3584,), eps=1e-06)
)
model.layers.10.self_attn: Qwen2Attention(
  (q_proj): Linear(in_features=3584, out_features=3584, bias=True)
  (k_proj): Linear(in_features=3584, out_features=512, bias=True)
  (v_proj): Linear(in_features=3584, out_features=512, bias=True)
  (o_proj): Linear(in_features=3584, out_features=3584, bias=False)
)
model.layers.10.self_attn.q_proj: Linear(in_features=3584, out_features=3584, bias=True)
model.layers.10.self_attn.k_proj: Linear(in_features=3584, out_features=512, bias=True)
model.layers.10.self_attn.v_proj: Linear(in_features=3584, out_features=512, bias=True)
model.layers.10.self_attn.o_proj: Linear(in_features=3584, out_features=3584, bias=False)
model.layers.10.mlp: Qwen2MLP(
  (gate_proj): Linear(in_features=3584, out_features=18944, bias=False)
  (up_proj): Linear(in_features=3584, out_features=18944, bias=False)
  (down_proj): Linear(in_features=18944, out_features=3584, bias=False)
  (act_fn): SiLU()
)
model.layers.10.mlp.gate_proj: Linear(in_features=3584, out_features=18944, bias=False)
model.layers.10.mlp.up_proj: Linear(in_features=3584, out_features=18944, bias=False)
model.layers.10.mlp.down_proj: Linear(in_features=18944, out_features=3584, bias=False)
model.layers.10.mlp.act_fn: SiLU()
model.layers.10.input_layernorm: Qwen2RMSNorm((3584,), eps=1e-06)
model.layers.10.post_attention_layernorm: Qwen2RMSNorm((3584,), eps=1e-06)
model.layers.11: Qwen2DecoderLayer(
  (self_attn): Qwen2Attention(
    (q_proj): Linear(in_features=3584, out_features=3584, bias=True)
    (k_proj): Linear(in_features=3584, out_features=512, bias=True)
    (v_proj): Linear(in_features=3584, out_features=512, bias=True)
    (o_proj): Linear(in_features=3584, out_features=3584, bias=False)
  )
  (mlp): Qwen2MLP(
    (gate_proj): Linear(in_features=3584, out_features=18944, bias=False)
    (up_proj): Linear(in_features=3584, out_features=18944, bias=False)
    (down_proj): Linear(in_features=18944, out_features=3584, bias=False)
    (act_fn): SiLU()
  )
  (input_layernorm): Qwen2RMSNorm((3584,), eps=1e-06)
  (post_attention_layernorm): Qwen2RMSNorm((3584,), eps=1e-06)
)
model.layers.11.self_attn: Qwen2Attention(
  (q_proj): Linear(in_features=3584, out_features=3584, bias=True)
  (k_proj): Linear(in_features=3584, out_features=512, bias=True)
  (v_proj): Linear(in_features=3584, out_features=512, bias=True)
  (o_proj): Linear(in_features=3584, out_features=3584, bias=False)
)
model.layers.11.self_attn.q_proj: Linear(in_features=3584, out_features=3584, bias=True)
model.layers.11.self_attn.k_proj: Linear(in_features=3584, out_features=512, bias=True)
model.layers.11.self_attn.v_proj: Linear(in_features=3584, out_features=512, bias=True)
model.layers.11.self_attn.o_proj: Linear(in_features=3584, out_features=3584, bias=False)
model.layers.11.mlp: Qwen2MLP(
  (gate_proj): Linear(in_features=3584, out_features=18944, bias=False)
  (up_proj): Linear(in_features=3584, out_features=18944, bias=False)
  (down_proj): Linear(in_features=18944, out_features=3584, bias=False)
  (act_fn): SiLU()
)
model.layers.11.mlp.gate_proj: Linear(in_features=3584, out_features=18944, bias=False)
model.layers.11.mlp.up_proj: Linear(in_features=3584, out_features=18944, bias=False)
model.layers.11.mlp.down_proj: Linear(in_features=18944, out_features=3584, bias=False)
model.layers.11.mlp.act_fn: SiLU()
model.layers.11.input_layernorm: Qwen2RMSNorm((3584,), eps=1e-06)
model.layers.11.post_attention_layernorm: Qwen2RMSNorm((3584,), eps=1e-06)
model.layers.12: Qwen2DecoderLayer(
  (self_attn): Qwen2Attention(
    (q_proj): Linear(in_features=3584, out_features=3584, bias=True)
    (k_proj): Linear(in_features=3584, out_features=512, bias=True)
    (v_proj): Linear(in_features=3584, out_features=512, bias=True)
    (o_proj): Linear(in_features=3584, out_features=3584, bias=False)
  )
  (mlp): Qwen2MLP(
    (gate_proj): Linear(in_features=3584, out_features=18944, bias=False)
    (up_proj): Linear(in_features=3584, out_features=18944, bias=False)
    (down_proj): Linear(in_features=18944, out_features=3584, bias=False)
    (act_fn): SiLU()
  )
  (input_layernorm): Qwen2RMSNorm((3584,), eps=1e-06)
  (post_attention_layernorm): Qwen2RMSNorm((3584,), eps=1e-06)
)
model.layers.12.self_attn: Qwen2Attention(
  (q_proj): Linear(in_features=3584, out_features=3584, bias=True)
  (k_proj): Linear(in_features=3584, out_features=512, bias=True)
  (v_proj): Linear(in_features=3584, out_features=512, bias=True)
  (o_proj): Linear(in_features=3584, out_features=3584, bias=False)
)
model.layers.12.self_attn.q_proj: Linear(in_features=3584, out_features=3584, bias=True)
model.layers.12.self_attn.k_proj: Linear(in_features=3584, out_features=512, bias=True)
model.layers.12.self_attn.v_proj: Linear(in_features=3584, out_features=512, bias=True)
model.layers.12.self_attn.o_proj: Linear(in_features=3584, out_features=3584, bias=False)
model.layers.12.mlp: Qwen2MLP(
  (gate_proj): Linear(in_features=3584, out_features=18944, bias=False)
  (up_proj): Linear(in_features=3584, out_features=18944, bias=False)
  (down_proj): Linear(in_features=18944, out_features=3584, bias=False)
  (act_fn): SiLU()
)
model.layers.12.mlp.gate_proj: Linear(in_features=3584, out_features=18944, bias=False)
model.layers.12.mlp.up_proj: Linear(in_features=3584, out_features=18944, bias=False)
model.layers.12.mlp.down_proj: Linear(in_features=18944, out_features=3584, bias=False)
model.layers.12.mlp.act_fn: SiLU()
model.layers.12.input_layernorm: Qwen2RMSNorm((3584,), eps=1e-06)
model.layers.12.post_attention_layernorm: Qwen2RMSNorm((3584,), eps=1e-06)
model.layers.13: Qwen2DecoderLayer(
  (self_attn): Qwen2Attention(
    (q_proj): Linear(in_features=3584, out_features=3584, bias=True)
    (k_proj): Linear(in_features=3584, out_features=512, bias=True)
    (v_proj): Linear(in_features=3584, out_features=512, bias=True)
    (o_proj): Linear(in_features=3584, out_features=3584, bias=False)
  )
  (mlp): Qwen2MLP(
    (gate_proj): Linear(in_features=3584, out_features=18944, bias=False)
    (up_proj): Linear(in_features=3584, out_features=18944, bias=False)
    (down_proj): Linear(in_features=18944, out_features=3584, bias=False)
    (act_fn): SiLU()
  )
  (input_layernorm): Qwen2RMSNorm((3584,), eps=1e-06)
  (post_attention_layernorm): Qwen2RMSNorm((3584,), eps=1e-06)
)
model.layers.13.self_attn: Qwen2Attention(
  (q_proj): Linear(in_features=3584, out_features=3584, bias=True)
  (k_proj): Linear(in_features=3584, out_features=512, bias=True)
  (v_proj): Linear(in_features=3584, out_features=512, bias=True)
  (o_proj): Linear(in_features=3584, out_features=3584, bias=False)
)
model.layers.13.self_attn.q_proj: Linear(in_features=3584, out_features=3584, bias=True)
model.layers.13.self_attn.k_proj: Linear(in_features=3584, out_features=512, bias=True)
model.layers.13.self_attn.v_proj: Linear(in_features=3584, out_features=512, bias=True)
model.layers.13.self_attn.o_proj: Linear(in_features=3584, out_features=3584, bias=False)
model.layers.13.mlp: Qwen2MLP(
  (gate_proj): Linear(in_features=3584, out_features=18944, bias=False)
  (up_proj): Linear(in_features=3584, out_features=18944, bias=False)
  (down_proj): Linear(in_features=18944, out_features=3584, bias=False)
  (act_fn): SiLU()
)
model.layers.13.mlp.gate_proj: Linear(in_features=3584, out_features=18944, bias=False)
model.layers.13.mlp.up_proj: Linear(in_features=3584, out_features=18944, bias=False)
model.layers.13.mlp.down_proj: Linear(in_features=18944, out_features=3584, bias=False)
model.layers.13.mlp.act_fn: SiLU()
model.layers.13.input_layernorm: Qwen2RMSNorm((3584,), eps=1e-06)
model.layers.13.post_attention_layernorm: Qwen2RMSNorm((3584,), eps=1e-06)
model.layers.14: Qwen2DecoderLayer(
  (self_attn): Qwen2Attention(
    (q_proj): Linear(in_features=3584, out_features=3584, bias=True)
    (k_proj): Linear(in_features=3584, out_features=512, bias=True)
    (v_proj): Linear(in_features=3584, out_features=512, bias=True)
    (o_proj): Linear(in_features=3584, out_features=3584, bias=False)
  )
  (mlp): Qwen2MLP(
    (gate_proj): Linear(in_features=3584, out_features=18944, bias=False)
    (up_proj): Linear(in_features=3584, out_features=18944, bias=False)
    (down_proj): Linear(in_features=18944, out_features=3584, bias=False)
    (act_fn): SiLU()
  )
  (input_layernorm): Qwen2RMSNorm((3584,), eps=1e-06)
  (post_attention_layernorm): Qwen2RMSNorm((3584,), eps=1e-06)
)
model.layers.14.self_attn: Qwen2Attention(
  (q_proj): Linear(in_features=3584, out_features=3584, bias=True)
  (k_proj): Linear(in_features=3584, out_features=512, bias=True)
  (v_proj): Linear(in_features=3584, out_features=512, bias=True)
  (o_proj): Linear(in_features=3584, out_features=3584, bias=False)
)
model.layers.14.self_attn.q_proj: Linear(in_features=3584, out_features=3584, bias=True)
model.layers.14.self_attn.k_proj: Linear(in_features=3584, out_features=512, bias=True)
model.layers.14.self_attn.v_proj: Linear(in_features=3584, out_features=512, bias=True)
model.layers.14.self_attn.o_proj: Linear(in_features=3584, out_features=3584, bias=False)
model.layers.14.mlp: Qwen2MLP(
  (gate_proj): Linear(in_features=3584, out_features=18944, bias=False)
  (up_proj): Linear(in_features=3584, out_features=18944, bias=False)
  (down_proj): Linear(in_features=18944, out_features=3584, bias=False)
  (act_fn): SiLU()
)
model.layers.14.mlp.gate_proj: Linear(in_features=3584, out_features=18944, bias=False)
model.layers.14.mlp.up_proj: Linear(in_features=3584, out_features=18944, bias=False)
model.layers.14.mlp.down_proj: Linear(in_features=18944, out_features=3584, bias=False)
model.layers.14.mlp.act_fn: SiLU()
model.layers.14.input_layernorm: Qwen2RMSNorm((3584,), eps=1e-06)
model.layers.14.post_attention_layernorm: Qwen2RMSNorm((3584,), eps=1e-06)
model.layers.15: Qwen2DecoderLayer(
  (self_attn): Qwen2Attention(
    (q_proj): Linear(in_features=3584, out_features=3584, bias=True)
    (k_proj): Linear(in_features=3584, out_features=512, bias=True)
    (v_proj): Linear(in_features=3584, out_features=512, bias=True)
    (o_proj): Linear(in_features=3584, out_features=3584, bias=False)
  )
  (mlp): Qwen2MLP(
    (gate_proj): Linear(in_features=3584, out_features=18944, bias=False)
    (up_proj): Linear(in_features=3584, out_features=18944, bias=False)
    (down_proj): Linear(in_features=18944, out_features=3584, bias=False)
    (act_fn): SiLU()
  )
  (input_layernorm): Qwen2RMSNorm((3584,), eps=1e-06)
  (post_attention_layernorm): Qwen2RMSNorm((3584,), eps=1e-06)
)
model.layers.15.self_attn: Qwen2Attention(
  (q_proj): Linear(in_features=3584, out_features=3584, bias=True)
  (k_proj): Linear(in_features=3584, out_features=512, bias=True)
  (v_proj): Linear(in_features=3584, out_features=512, bias=True)
  (o_proj): Linear(in_features=3584, out_features=3584, bias=False)
)
model.layers.15.self_attn.q_proj: Linear(in_features=3584, out_features=3584, bias=True)
model.layers.15.self_attn.k_proj: Linear(in_features=3584, out_features=512, bias=True)
model.layers.15.self_attn.v_proj: Linear(in_features=3584, out_features=512, bias=True)
model.layers.15.self_attn.o_proj: Linear(in_features=3584, out_features=3584, bias=False)
model.layers.15.mlp: Qwen2MLP(
  (gate_proj): Linear(in_features=3584, out_features=18944, bias=False)
  (up_proj): Linear(in_features=3584, out_features=18944, bias=False)
  (down_proj): Linear(in_features=18944, out_features=3584, bias=False)
  (act_fn): SiLU()
)
model.layers.15.mlp.gate_proj: Linear(in_features=3584, out_features=18944, bias=False)
model.layers.15.mlp.up_proj: Linear(in_features=3584, out_features=18944, bias=False)
model.layers.15.mlp.down_proj: Linear(in_features=18944, out_features=3584, bias=False)
model.layers.15.mlp.act_fn: SiLU()
model.layers.15.input_layernorm: Qwen2RMSNorm((3584,), eps=1e-06)
model.layers.15.post_attention_layernorm: Qwen2RMSNorm((3584,), eps=1e-06)
model.layers.16: Qwen2DecoderLayer(
  (self_attn): Qwen2Attention(
    (q_proj): Linear(in_features=3584, out_features=3584, bias=True)
    (k_proj): Linear(in_features=3584, out_features=512, bias=True)
    (v_proj): Linear(in_features=3584, out_features=512, bias=True)
    (o_proj): Linear(in_features=3584, out_features=3584, bias=False)
  )
  (mlp): Qwen2MLP(
    (gate_proj): Linear(in_features=3584, out_features=18944, bias=False)
    (up_proj): Linear(in_features=3584, out_features=18944, bias=False)
    (down_proj): Linear(in_features=18944, out_features=3584, bias=False)
    (act_fn): SiLU()
  )
  (input_layernorm): Qwen2RMSNorm((3584,), eps=1e-06)
  (post_attention_layernorm): Qwen2RMSNorm((3584,), eps=1e-06)
)
model.layers.16.self_attn: Qwen2Attention(
  (q_proj): Linear(in_features=3584, out_features=3584, bias=True)
  (k_proj): Linear(in_features=3584, out_features=512, bias=True)
  (v_proj): Linear(in_features=3584, out_features=512, bias=True)
  (o_proj): Linear(in_features=3584, out_features=3584, bias=False)
)
model.layers.16.self_attn.q_proj: Linear(in_features=3584, out_features=3584, bias=True)
model.layers.16.self_attn.k_proj: Linear(in_features=3584, out_features=512, bias=True)
model.layers.16.self_attn.v_proj: Linear(in_features=3584, out_features=512, bias=True)
model.layers.16.self_attn.o_proj: Linear(in_features=3584, out_features=3584, bias=False)
model.layers.16.mlp: Qwen2MLP(
  (gate_proj): Linear(in_features=3584, out_features=18944, bias=False)
  (up_proj): Linear(in_features=3584, out_features=18944, bias=False)
  (down_proj): Linear(in_features=18944, out_features=3584, bias=False)
  (act_fn): SiLU()
)
model.layers.16.mlp.gate_proj: Linear(in_features=3584, out_features=18944, bias=False)
model.layers.16.mlp.up_proj: Linear(in_features=3584, out_features=18944, bias=False)
model.layers.16.mlp.down_proj: Linear(in_features=18944, out_features=3584, bias=False)
model.layers.16.mlp.act_fn: SiLU()
model.layers.16.input_layernorm: Qwen2RMSNorm((3584,), eps=1e-06)
model.layers.16.post_attention_layernorm: Qwen2RMSNorm((3584,), eps=1e-06)
model.layers.17: Qwen2DecoderLayer(
  (self_attn): Qwen2Attention(
    (q_proj): Linear(in_features=3584, out_features=3584, bias=True)
    (k_proj): Linear(in_features=3584, out_features=512, bias=True)
    (v_proj): Linear(in_features=3584, out_features=512, bias=True)
    (o_proj): Linear(in_features=3584, out_features=3584, bias=False)
  )
  (mlp): Qwen2MLP(
    (gate_proj): Linear(in_features=3584, out_features=18944, bias=False)
    (up_proj): Linear(in_features=3584, out_features=18944, bias=False)
    (down_proj): Linear(in_features=18944, out_features=3584, bias=False)
    (act_fn): SiLU()
  )
  (input_layernorm): Qwen2RMSNorm((3584,), eps=1e-06)
  (post_attention_layernorm): Qwen2RMSNorm((3584,), eps=1e-06)
)
model.layers.17.self_attn: Qwen2Attention(
  (q_proj): Linear(in_features=3584, out_features=3584, bias=True)
  (k_proj): Linear(in_features=3584, out_features=512, bias=True)
  (v_proj): Linear(in_features=3584, out_features=512, bias=True)
  (o_proj): Linear(in_features=3584, out_features=3584, bias=False)
)
model.layers.17.self_attn.q_proj: Linear(in_features=3584, out_features=3584, bias=True)
model.layers.17.self_attn.k_proj: Linear(in_features=3584, out_features=512, bias=True)
model.layers.17.self_attn.v_proj: Linear(in_features=3584, out_features=512, bias=True)
model.layers.17.self_attn.o_proj: Linear(in_features=3584, out_features=3584, bias=False)
model.layers.17.mlp: Qwen2MLP(
  (gate_proj): Linear(in_features=3584, out_features=18944, bias=False)
  (up_proj): Linear(in_features=3584, out_features=18944, bias=False)
  (down_proj): Linear(in_features=18944, out_features=3584, bias=False)
  (act_fn): SiLU()
)
model.layers.17.mlp.gate_proj: Linear(in_features=3584, out_features=18944, bias=False)
model.layers.17.mlp.up_proj: Linear(in_features=3584, out_features=18944, bias=False)
model.layers.17.mlp.down_proj: Linear(in_features=18944, out_features=3584, bias=False)
model.layers.17.mlp.act_fn: SiLU()
model.layers.17.input_layernorm: Qwen2RMSNorm((3584,), eps=1e-06)
model.layers.17.post_attention_layernorm: Qwen2RMSNorm((3584,), eps=1e-06)
model.layers.18: Qwen2DecoderLayer(
  (self_attn): Qwen2Attention(
    (q_proj): Linear(in_features=3584, out_features=3584, bias=True)
    (k_proj): Linear(in_features=3584, out_features=512, bias=True)
    (v_proj): Linear(in_features=3584, out_features=512, bias=True)
    (o_proj): Linear(in_features=3584, out_features=3584, bias=False)
  )
  (mlp): Qwen2MLP(
    (gate_proj): Linear(in_features=3584, out_features=18944, bias=False)
    (up_proj): Linear(in_features=3584, out_features=18944, bias=False)
    (down_proj): Linear(in_features=18944, out_features=3584, bias=False)
    (act_fn): SiLU()
  )
  (input_layernorm): Qwen2RMSNorm((3584,), eps=1e-06)
  (post_attention_layernorm): Qwen2RMSNorm((3584,), eps=1e-06)
)
model.layers.18.self_attn: Qwen2Attention(
  (q_proj): Linear(in_features=3584, out_features=3584, bias=True)
  (k_proj): Linear(in_features=3584, out_features=512, bias=True)
  (v_proj): Linear(in_features=3584, out_features=512, bias=True)
  (o_proj): Linear(in_features=3584, out_features=3584, bias=False)
)
model.layers.18.self_attn.q_proj: Linear(in_features=3584, out_features=3584, bias=True)
model.layers.18.self_attn.k_proj: Linear(in_features=3584, out_features=512, bias=True)
model.layers.18.self_attn.v_proj: Linear(in_features=3584, out_features=512, bias=True)
model.layers.18.self_attn.o_proj: Linear(in_features=3584, out_features=3584, bias=False)
model.layers.18.mlp: Qwen2MLP(
  (gate_proj): Linear(in_features=3584, out_features=18944, bias=False)
  (up_proj): Linear(in_features=3584, out_features=18944, bias=False)
  (down_proj): Linear(in_features=18944, out_features=3584, bias=False)
  (act_fn): SiLU()
)
model.layers.18.mlp.gate_proj: Linear(in_features=3584, out_features=18944, bias=False)
model.layers.18.mlp.up_proj: Linear(in_features=3584, out_features=18944, bias=False)
model.layers.18.mlp.down_proj: Linear(in_features=18944, out_features=3584, bias=False)
model.layers.18.mlp.act_fn: SiLU()
model.layers.18.input_layernorm: Qwen2RMSNorm((3584,), eps=1e-06)
model.layers.18.post_attention_layernorm: Qwen2RMSNorm((3584,), eps=1e-06)
model.layers.19: Qwen2DecoderLayer(
  (self_attn): Qwen2Attention(
    (q_proj): Linear(in_features=3584, out_features=3584, bias=True)
    (k_proj): Linear(in_features=3584, out_features=512, bias=True)
    (v_proj): Linear(in_features=3584, out_features=512, bias=True)
    (o_proj): Linear(in_features=3584, out_features=3584, bias=False)
  )
  (mlp): Qwen2MLP(
    (gate_proj): Linear(in_features=3584, out_features=18944, bias=False)
    (up_proj): Linear(in_features=3584, out_features=18944, bias=False)
    (down_proj): Linear(in_features=18944, out_features=3584, bias=False)
    (act_fn): SiLU()
  )
  (input_layernorm): Qwen2RMSNorm((3584,), eps=1e-06)
  (post_attention_layernorm): Qwen2RMSNorm((3584,), eps=1e-06)
)
model.layers.19.self_attn: Qwen2Attention(
  (q_proj): Linear(in_features=3584, out_features=3584, bias=True)
  (k_proj): Linear(in_features=3584, out_features=512, bias=True)
  (v_proj): Linear(in_features=3584, out_features=512, bias=True)
  (o_proj): Linear(in_features=3584, out_features=3584, bias=False)
)
model.layers.19.self_attn.q_proj: Linear(in_features=3584, out_features=3584, bias=True)
model.layers.19.self_attn.k_proj: Linear(in_features=3584, out_features=512, bias=True)
model.layers.19.self_attn.v_proj: Linear(in_features=3584, out_features=512, bias=True)
model.layers.19.self_attn.o_proj: Linear(in_features=3584, out_features=3584, bias=False)
model.layers.19.mlp: Qwen2MLP(
  (gate_proj): Linear(in_features=3584, out_features=18944, bias=False)
  (up_proj): Linear(in_features=3584, out_features=18944, bias=False)
  (down_proj): Linear(in_features=18944, out_features=3584, bias=False)
  (act_fn): SiLU()
)
model.layers.19.mlp.gate_proj: Linear(in_features=3584, out_features=18944, bias=False)
model.layers.19.mlp.up_proj: Linear(in_features=3584, out_features=18944, bias=False)
model.layers.19.mlp.down_proj: Linear(in_features=18944, out_features=3584, bias=False)
model.layers.19.mlp.act_fn: SiLU()
model.layers.19.input_layernorm: Qwen2RMSNorm((3584,), eps=1e-06)
model.layers.19.post_attention_layernorm: Qwen2RMSNorm((3584,), eps=1e-06)
model.layers.20: Qwen2DecoderLayer(
  (self_attn): Qwen2Attention(
    (q_proj): Linear(in_features=3584, out_features=3584, bias=True)
    (k_proj): Linear(in_features=3584, out_features=512, bias=True)
    (v_proj): Linear(in_features=3584, out_features=512, bias=True)
    (o_proj): Linear(in_features=3584, out_features=3584, bias=False)
  )
  (mlp): Qwen2MLP(
    (gate_proj): Linear(in_features=3584, out_features=18944, bias=False)
    (up_proj): Linear(in_features=3584, out_features=18944, bias=False)
    (down_proj): Linear(in_features=18944, out_features=3584, bias=False)
    (act_fn): SiLU()
  )
  (input_layernorm): Qwen2RMSNorm((3584,), eps=1e-06)
  (post_attention_layernorm): Qwen2RMSNorm((3584,), eps=1e-06)
)
model.layers.20.self_attn: Qwen2Attention(
  (q_proj): Linear(in_features=3584, out_features=3584, bias=True)
  (k_proj): Linear(in_features=3584, out_features=512, bias=True)
  (v_proj): Linear(in_features=3584, out_features=512, bias=True)
  (o_proj): Linear(in_features=3584, out_features=3584, bias=False)
)
model.layers.20.self_attn.q_proj: Linear(in_features=3584, out_features=3584, bias=True)
model.layers.20.self_attn.k_proj: Linear(in_features=3584, out_features=512, bias=True)
model.layers.20.self_attn.v_proj: Linear(in_features=3584, out_features=512, bias=True)
model.layers.20.self_attn.o_proj: Linear(in_features=3584, out_features=3584, bias=False)
model.layers.20.mlp: Qwen2MLP(
  (gate_proj): Linear(in_features=3584, out_features=18944, bias=False)
  (up_proj): Linear(in_features=3584, out_features=18944, bias=False)
  (down_proj): Linear(in_features=18944, out_features=3584, bias=False)
  (act_fn): SiLU()
)
model.layers.20.mlp.gate_proj: Linear(in_features=3584, out_features=18944, bias=False)
model.layers.20.mlp.up_proj: Linear(in_features=3584, out_features=18944, bias=False)
model.layers.20.mlp.down_proj: Linear(in_features=18944, out_features=3584, bias=False)
model.layers.20.mlp.act_fn: SiLU()
model.layers.20.input_layernorm: Qwen2RMSNorm((3584,), eps=1e-06)
model.layers.20.post_attention_layernorm: Qwen2RMSNorm((3584,), eps=1e-06)
model.layers.21: Qwen2DecoderLayer(
  (self_attn): Qwen2Attention(
    (q_proj): Linear(in_features=3584, out_features=3584, bias=True)
    (k_proj): Linear(in_features=3584, out_features=512, bias=True)
    (v_proj): Linear(in_features=3584, out_features=512, bias=True)
    (o_proj): Linear(in_features=3584, out_features=3584, bias=False)
  )
  (mlp): Qwen2MLP(
    (gate_proj): Linear(in_features=3584, out_features=18944, bias=False)
    (up_proj): Linear(in_features=3584, out_features=18944, bias=False)
    (down_proj): Linear(in_features=18944, out_features=3584, bias=False)
    (act_fn): SiLU()
  )
  (input_layernorm): Qwen2RMSNorm((3584,), eps=1e-06)
  (post_attention_layernorm): Qwen2RMSNorm((3584,), eps=1e-06)
)
model.layers.21.self_attn: Qwen2Attention(
  (q_proj): Linear(in_features=3584, out_features=3584, bias=True)
  (k_proj): Linear(in_features=3584, out_features=512, bias=True)
  (v_proj): Linear(in_features=3584, out_features=512, bias=True)
  (o_proj): Linear(in_features=3584, out_features=3584, bias=False)
)
model.layers.21.self_attn.q_proj: Linear(in_features=3584, out_features=3584, bias=True)
model.layers.21.self_attn.k_proj: Linear(in_features=3584, out_features=512, bias=True)
model.layers.21.self_attn.v_proj: Linear(in_features=3584, out_features=512, bias=True)
model.layers.21.self_attn.o_proj: Linear(in_features=3584, out_features=3584, bias=False)
model.layers.21.mlp: Qwen2MLP(
  (gate_proj): Linear(in_features=3584, out_features=18944, bias=False)
  (up_proj): Linear(in_features=3584, out_features=18944, bias=False)
  (down_proj): Linear(in_features=18944, out_features=3584, bias=False)
  (act_fn): SiLU()
)
model.layers.21.mlp.gate_proj: Linear(in_features=3584, out_features=18944, bias=False)
model.layers.21.mlp.up_proj: Linear(in_features=3584, out_features=18944, bias=False)
model.layers.21.mlp.down_proj: Linear(in_features=18944, out_features=3584, bias=False)
model.layers.21.mlp.act_fn: SiLU()
model.layers.21.input_layernorm: Qwen2RMSNorm((3584,), eps=1e-06)
model.layers.21.post_attention_layernorm: Qwen2RMSNorm((3584,), eps=1e-06)
model.layers.22: Qwen2DecoderLayer(
  (self_attn): Qwen2Attention(
    (q_proj): Linear(in_features=3584, out_features=3584, bias=True)
    (k_proj): Linear(in_features=3584, out_features=512, bias=True)
    (v_proj): Linear(in_features=3584, out_features=512, bias=True)
    (o_proj): Linear(in_features=3584, out_features=3584, bias=False)
  )
  (mlp): Qwen2MLP(
    (gate_proj): Linear(in_features=3584, out_features=18944, bias=False)
    (up_proj): Linear(in_features=3584, out_features=18944, bias=False)
    (down_proj): Linear(in_features=18944, out_features=3584, bias=False)
    (act_fn): SiLU()
  )
  (input_layernorm): Qwen2RMSNorm((3584,), eps=1e-06)
  (post_attention_layernorm): Qwen2RMSNorm((3584,), eps=1e-06)
)
model.layers.22.self_attn: Qwen2Attention(
  (q_proj): Linear(in_features=3584, out_features=3584, bias=True)
  (k_proj): Linear(in_features=3584, out_features=512, bias=True)
  (v_proj): Linear(in_features=3584, out_features=512, bias=True)
  (o_proj): Linear(in_features=3584, out_features=3584, bias=False)
)
model.layers.22.self_attn.q_proj: Linear(in_features=3584, out_features=3584, bias=True)
model.layers.22.self_attn.k_proj: Linear(in_features=3584, out_features=512, bias=True)
model.layers.22.self_attn.v_proj: Linear(in_features=3584, out_features=512, bias=True)
model.layers.22.self_attn.o_proj: Linear(in_features=3584, out_features=3584, bias=False)
model.layers.22.mlp: Qwen2MLP(
  (gate_proj): Linear(in_features=3584, out_features=18944, bias=False)
  (up_proj): Linear(in_features=3584, out_features=18944, bias=False)
  (down_proj): Linear(in_features=18944, out_features=3584, bias=False)
  (act_fn): SiLU()
)
model.layers.22.mlp.gate_proj: Linear(in_features=3584, out_features=18944, bias=False)
model.layers.22.mlp.up_proj: Linear(in_features=3584, out_features=18944, bias=False)
model.layers.22.mlp.down_proj: Linear(in_features=18944, out_features=3584, bias=False)
model.layers.22.mlp.act_fn: SiLU()
model.layers.22.input_layernorm: Qwen2RMSNorm((3584,), eps=1e-06)
model.layers.22.post_attention_layernorm: Qwen2RMSNorm((3584,), eps=1e-06)
model.layers.23: Qwen2DecoderLayer(
  (self_attn): Qwen2Attention(
    (q_proj): Linear(in_features=3584, out_features=3584, bias=True)
    (k_proj): Linear(in_features=3584, out_features=512, bias=True)
    (v_proj): Linear(in_features=3584, out_features=512, bias=True)
    (o_proj): Linear(in_features=3584, out_features=3584, bias=False)
  )
  (mlp): Qwen2MLP(
    (gate_proj): Linear(in_features=3584, out_features=18944, bias=False)
    (up_proj): Linear(in_features=3584, out_features=18944, bias=False)
    (down_proj): Linear(in_features=18944, out_features=3584, bias=False)
    (act_fn): SiLU()
  )
  (input_layernorm): Qwen2RMSNorm((3584,), eps=1e-06)
  (post_attention_layernorm): Qwen2RMSNorm((3584,), eps=1e-06)
)
model.layers.23.self_attn: Qwen2Attention(
  (q_proj): Linear(in_features=3584, out_features=3584, bias=True)
  (k_proj): Linear(in_features=3584, out_features=512, bias=True)
  (v_proj): Linear(in_features=3584, out_features=512, bias=True)
  (o_proj): Linear(in_features=3584, out_features=3584, bias=False)
)
model.layers.23.self_attn.q_proj: Linear(in_features=3584, out_features=3584, bias=True)
model.layers.23.self_attn.k_proj: Linear(in_features=3584, out_features=512, bias=True)
model.layers.23.self_attn.v_proj: Linear(in_features=3584, out_features=512, bias=True)
model.layers.23.self_attn.o_proj: Linear(in_features=3584, out_features=3584, bias=False)
model.layers.23.mlp: Qwen2MLP(
  (gate_proj): Linear(in_features=3584, out_features=18944, bias=False)
  (up_proj): Linear(in_features=3584, out_features=18944, bias=False)
  (down_proj): Linear(in_features=18944, out_features=3584, bias=False)
  (act_fn): SiLU()
)
model.layers.23.mlp.gate_proj: Linear(in_features=3584, out_features=18944, bias=False)
model.layers.23.mlp.up_proj: Linear(in_features=3584, out_features=18944, bias=False)
model.layers.23.mlp.down_proj: Linear(in_features=18944, out_features=3584, bias=False)
model.layers.23.mlp.act_fn: SiLU()
model.layers.23.input_layernorm: Qwen2RMSNorm((3584,), eps=1e-06)
model.layers.23.post_attention_layernorm: Qwen2RMSNorm((3584,), eps=1e-06)
model.layers.24: Qwen2DecoderLayer(
  (self_attn): Qwen2Attention(
    (q_proj): Linear(in_features=3584, out_features=3584, bias=True)
    (k_proj): Linear(in_features=3584, out_features=512, bias=True)
    (v_proj): Linear(in_features=3584, out_features=512, bias=True)
    (o_proj): Linear(in_features=3584, out_features=3584, bias=False)
  )
  (mlp): Qwen2MLP(
    (gate_proj): Linear(in_features=3584, out_features=18944, bias=False)
    (up_proj): Linear(in_features=3584, out_features=18944, bias=False)
    (down_proj): Linear(in_features=18944, out_features=3584, bias=False)
    (act_fn): SiLU()
  )
  (input_layernorm): Qwen2RMSNorm((3584,), eps=1e-06)
  (post_attention_layernorm): Qwen2RMSNorm((3584,), eps=1e-06)
)
model.layers.24.self_attn: Qwen2Attention(
  (q_proj): Linear(in_features=3584, out_features=3584, bias=True)
  (k_proj): Linear(in_features=3584, out_features=512, bias=True)
  (v_proj): Linear(in_features=3584, out_features=512, bias=True)
  (o_proj): Linear(in_features=3584, out_features=3584, bias=False)
)
model.layers.24.self_attn.q_proj: Linear(in_features=3584, out_features=3584, bias=True)
model.layers.24.self_attn.k_proj: Linear(in_features=3584, out_features=512, bias=True)
model.layers.24.self_attn.v_proj: Linear(in_features=3584, out_features=512, bias=True)
model.layers.24.self_attn.o_proj: Linear(in_features=3584, out_features=3584, bias=False)
model.layers.24.mlp: Qwen2MLP(
  (gate_proj): Linear(in_features=3584, out_features=18944, bias=False)
  (up_proj): Linear(in_features=3584, out_features=18944, bias=False)
  (down_proj): Linear(in_features=18944, out_features=3584, bias=False)
  (act_fn): SiLU()
)
model.layers.24.mlp.gate_proj: Linear(in_features=3584, out_features=18944, bias=False)
model.layers.24.mlp.up_proj: Linear(in_features=3584, out_features=18944, bias=False)
model.layers.24.mlp.down_proj: Linear(in_features=18944, out_features=3584, bias=False)
model.layers.24.mlp.act_fn: SiLU()
model.layers.24.input_layernorm: Qwen2RMSNorm((3584,), eps=1e-06)
model.layers.24.post_attention_layernorm: Qwen2RMSNorm((3584,), eps=1e-06)
model.layers.25: Qwen2DecoderLayer(
  (self_attn): Qwen2Attention(
    (q_proj): Linear(in_features=3584, out_features=3584, bias=True)
    (k_proj): Linear(in_features=3584, out_features=512, bias=True)
    (v_proj): Linear(in_features=3584, out_features=512, bias=True)
    (o_proj): Linear(in_features=3584, out_features=3584, bias=False)
  )
  (mlp): Qwen2MLP(
    (gate_proj): Linear(in_features=3584, out_features=18944, bias=False)
    (up_proj): Linear(in_features=3584, out_features=18944, bias=False)
    (down_proj): Linear(in_features=18944, out_features=3584, bias=False)
    (act_fn): SiLU()
  )
  (input_layernorm): Qwen2RMSNorm((3584,), eps=1e-06)
  (post_attention_layernorm): Qwen2RMSNorm((3584,), eps=1e-06)
)
model.layers.25.self_attn: Qwen2Attention(
  (q_proj): Linear(in_features=3584, out_features=3584, bias=True)
  (k_proj): Linear(in_features=3584, out_features=512, bias=True)
  (v_proj): Linear(in_features=3584, out_features=512, bias=True)
  (o_proj): Linear(in_features=3584, out_features=3584, bias=False)
)
model.layers.25.self_attn.q_proj: Linear(in_features=3584, out_features=3584, bias=True)
model.layers.25.self_attn.k_proj: Linear(in_features=3584, out_features=512, bias=True)
model.layers.25.self_attn.v_proj: Linear(in_features=3584, out_features=512, bias=True)
model.layers.25.self_attn.o_proj: Linear(in_features=3584, out_features=3584, bias=False)
model.layers.25.mlp: Qwen2MLP(
  (gate_proj): Linear(in_features=3584, out_features=18944, bias=False)
  (up_proj): Linear(in_features=3584, out_features=18944, bias=False)
  (down_proj): Linear(in_features=18944, out_features=3584, bias=False)
  (act_fn): SiLU()
)
model.layers.25.mlp.gate_proj: Linear(in_features=3584, out_features=18944, bias=False)
model.layers.25.mlp.up_proj: Linear(in_features=3584, out_features=18944, bias=False)
model.layers.25.mlp.down_proj: Linear(in_features=18944, out_features=3584, bias=False)
model.layers.25.mlp.act_fn: SiLU()
model.layers.25.input_layernorm: Qwen2RMSNorm((3584,), eps=1e-06)
model.layers.25.post_attention_layernorm: Qwen2RMSNorm((3584,), eps=1e-06)
model.layers.26: Qwen2DecoderLayer(
  (self_attn): Qwen2Attention(
    (q_proj): Linear(in_features=3584, out_features=3584, bias=True)
    (k_proj): Linear(in_features=3584, out_features=512, bias=True)
    (v_proj): Linear(in_features=3584, out_features=512, bias=True)
    (o_proj): Linear(in_features=3584, out_features=3584, bias=False)
  )
  (mlp): Qwen2MLP(
    (gate_proj): Linear(in_features=3584, out_features=18944, bias=False)
    (up_proj): Linear(in_features=3584, out_features=18944, bias=False)
    (down_proj): Linear(in_features=18944, out_features=3584, bias=False)
    (act_fn): SiLU()
  )
  (input_layernorm): Qwen2RMSNorm((3584,), eps=1e-06)
  (post_attention_layernorm): Qwen2RMSNorm((3584,), eps=1e-06)
)
model.layers.26.self_attn: Qwen2Attention(
  (q_proj): Linear(in_features=3584, out_features=3584, bias=True)
  (k_proj): Linear(in_features=3584, out_features=512, bias=True)
  (v_proj): Linear(in_features=3584, out_features=512, bias=True)
  (o_proj): Linear(in_features=3584, out_features=3584, bias=False)
)
model.layers.26.self_attn.q_proj: Linear(in_features=3584, out_features=3584, bias=True)
model.layers.26.self_attn.k_proj: Linear(in_features=3584, out_features=512, bias=True)
model.layers.26.self_attn.v_proj: Linear(in_features=3584, out_features=512, bias=True)
model.layers.26.self_attn.o_proj: Linear(in_features=3584, out_features=3584, bias=False)
model.layers.26.mlp: Qwen2MLP(
  (gate_proj): Linear(in_features=3584, out_features=18944, bias=False)
  (up_proj): Linear(in_features=3584, out_features=18944, bias=False)
  (down_proj): Linear(in_features=18944, out_features=3584, bias=False)
  (act_fn): SiLU()
)
model.layers.26.mlp.gate_proj: Linear(in_features=3584, out_features=18944, bias=False)
model.layers.26.mlp.up_proj: Linear(in_features=3584, out_features=18944, bias=False)
model.layers.26.mlp.down_proj: Linear(in_features=18944, out_features=3584, bias=False)
model.layers.26.mlp.act_fn: SiLU()
model.layers.26.input_layernorm: Qwen2RMSNorm((3584,), eps=1e-06)
model.layers.26.post_attention_layernorm: Qwen2RMSNorm((3584,), eps=1e-06)
model.layers.27: Qwen2DecoderLayer(
  (self_attn): Qwen2Attention(
    (q_proj): Linear(in_features=3584, out_features=3584, bias=True)
    (k_proj): Linear(in_features=3584, out_features=512, bias=True)
    (v_proj): Linear(in_features=3584, out_features=512, bias=True)
    (o_proj): Linear(in_features=3584, out_features=3584, bias=False)
  )
  (mlp): Qwen2MLP(
    (gate_proj): Linear(in_features=3584, out_features=18944, bias=False)
    (up_proj): Linear(in_features=3584, out_features=18944, bias=False)
    (down_proj): Linear(in_features=18944, out_features=3584, bias=False)
    (act_fn): SiLU()
  )
  (input_layernorm): Qwen2RMSNorm((3584,), eps=1e-06)
  (post_attention_layernorm): Qwen2RMSNorm((3584,), eps=1e-06)
)
model.layers.27.self_attn: Qwen2Attention(
  (q_proj): Linear(in_features=3584, out_features=3584, bias=True)
  (k_proj): Linear(in_features=3584, out_features=512, bias=True)
  (v_proj): Linear(in_features=3584, out_features=512, bias=True)
  (o_proj): Linear(in_features=3584, out_features=3584, bias=False)
)
model.layers.27.self_attn.q_proj: Linear(in_features=3584, out_features=3584, bias=True)
model.layers.27.self_attn.k_proj: Linear(in_features=3584, out_features=512, bias=True)
model.layers.27.self_attn.v_proj: Linear(in_features=3584, out_features=512, bias=True)
model.layers.27.self_attn.o_proj: Linear(in_features=3584, out_features=3584, bias=False)
model.layers.27.mlp: Qwen2MLP(
  (gate_proj): Linear(in_features=3584, out_features=18944, bias=False)
  (up_proj): Linear(in_features=3584, out_features=18944, bias=False)
  (down_proj): Linear(in_features=18944, out_features=3584, bias=False)
  (act_fn): SiLU()
)
model.layers.27.mlp.gate_proj: Linear(in_features=3584, out_features=18944, bias=False)
model.layers.27.mlp.up_proj: Linear(in_features=3584, out_features=18944, bias=False)
model.layers.27.mlp.down_proj: Linear(in_features=18944, out_features=3584, bias=False)
model.layers.27.mlp.act_fn: SiLU()
model.layers.27.input_layernorm: Qwen2RMSNorm((3584,), eps=1e-06)
…
